onnx_model.onnx (onnx, 1369 bytes, 5 tensors)

linear1.weight f4 [5, 8]
00000000: 6347 1c3f 752e ca3e 46c6 8f3d e202 8bbe
00000010: 8e78 90be 9970 92bd 163b e53c 3ac4 e43f
00000020: e635 1940 210e 1540 7d30 383f d935 95bf
00000030: 3142 88bf 5f72 153f d1cf 583f 31fd a4be
00000040: aae6 fdbe 889d 1abf 72bf 97bf 8d24 ed3e
00000050: 93a3 873e bf26 353f bd47 a2be 785a 34be
00000060: 5720 2ebf 3094 cbbe 8192 833f 8ca0 c83f
00000070: b0c3 8e3f 16b7 e4be 8c20 89be fe71 d43d
00000080: d28e cc3f bb30 c53f eb4d 523f feae 4dbf
00000090: db76 19be 1ff5 1c3f a400 593f 330b 3e3e
0.6104643 0.3948857 0.070202395 -0.27150637 -0.28216976 -0.071503825 0.027982276 1.7872384
2.3939147 2.3289874 0.7194899 -1.1657058 -1.06452 0.5837764 0.846921 -0.3222442
-0.49590045 -0.60396624 -1.18553 0.4631695 0.26491985 0.70762247 -0.31695357 -0.17612636
-0.68018097 -0.39761496 1.0279084 1.5673995 1.1153469 -0.44670933 -0.26782644 0.10373305
1.5981085 1.5405496 0.82150143 -0.8034514 -0.14986746 0.61311525 0.847666 0.1855896

linear1.bias f4 [5]
00000000: d782 f53f f094 1440 0a3b fd3f 553b 1840
00000010: a320 b63f
1.9180554 2.3215904 1.9783642 2.3786213 1.422871

linear2.weight f4 [3, 5]
00000000: e7a1 8ec0 e62b 0640 6342 b03e ff76 3b3f
00000010: 02a5 1bbf 3d43 4f3e a915 ba3f 6d22 633f
00000020: 66da c83f 0903 0840 3eea 893e 4468 a23f
00000030: 88c8 b93f 2e6b ce3f 0098 c13f
-4.4572635 2.0964293 0.3442565 0.7322845 -0.60798657 0.20240493 1.453786 0.88724405
1.569165 2.1251853 0.26936525 1.2688069 1.4514322 1.6126459 1.5124512

linear2.bias f4 [3]
00000000: 8a88 7b3f 769e 7f3e f8d1 d43e
0.9825522 0.24962792 0.41566443

linear3.weight f4 [1, 3]
00000000: c4ed afc0 8a0a ed3f 4c07 da3f
-5.497774 1.8518841 1.7033477
